unihenn/m3_model_ReLU_1/M3_model_relu1.pth (torch, 494479 bytes, 6 tensors)

Conv1.weight f4 [6, 1, 3, 3]
000000 da 99 78 3e 80 a5 b9 3d c1 b2 8b 3e 2a 6e a2 bd
       0.2427744 0.0906477 0.27284816 -0.079311684
000010 cc 03 12 bf 6f ba 19 be 0a e5 77 3c 3f ef 89 be
       -0.57037044 -0.15012525 0.015130291 -0.26940343
000020 73 cd b5 3e a6 6e 28 be 58 64 c9 3d 99 e1 73 3e
       0.35508308 -0.16448459 0.09833592 0.23816527
000030 a2 1c 86 3d 08 d0 62 3d c3 a1 c0 be 88 01 a8 3d
       0.0654843 0.055374175 -0.37623414 0.08203417
000040 ee d1 53 be c4 99 cf 3d d9 75 f4 3e c3 39 8b be
       -0.2068555 0.1013675 0.4774616 -0.27192506
000050 33 8f 88 3e 43 b6 47 be 6c 0e 05 bf 31 ae 43 be
       0.26671752 -0.19503121 -0.5197513 -0.19109417
000060 1b 5f 38 be d9 99 5b be 73 63 1f 3f 99 57 2c bd
       -0.1800503 -0.21445407 0.6226112 -0.042075727
000070 39 48 55 be 37 69 52 bf 58 ce b6 3d 4c f7 d6 3d
       -0.20828332 -0.82191795 0.08926076 0.10496387
000080 20 b9 ef be e6 c4 23 3f 8b 10 95 3e 88 77 c4 3e
       -0.46820927 0.6397232 0.29114184 0.38372445
000090 23 93 c7 bc 46 f4 39 be 55 fc 89 be fb da 80 3d
       -0.024362152 -0.18159589 -0.26950327 0.06291767
0000a0 e2 91 00 bf 20 a9 8f be 07 86 ae 3d 7c 2a b0 3d
       -0.502226 -0.2805872 0.085216574 0.08601853
0000b0 c5 43 dc 3e 9e 30 31 3e 3c 3c c2 be 00 a3 97 3e
       0.43020454 0.17303702 -0.3793658 0.29616547
0000c0 43 41 42 3e 69 57 b1 bd 69 0f 1b 3e fe ee ca 3d
       0.18970208 -0.0865925 0.15142597 0.099088654
0000d0 df 29 c6 be 56 ac 82 be
       -0.3870382 -0.25522107

Conv1.bias f4 [6]
000000 49 12 bb bd ef 27 2b bd 04 78 5b be e6 0f 4b bd
       -0.09134347 -0.04178613 -0.21432501 -0.04957571
000010 32 df 01 bf b0 87 58 be
       -0.50731194 -0.2114551

FC1.weight f4 [120, 1014]
000000 c9 f9 c8 3b 58 10 30 3c 8e 9d 4e bc f9 7a cd bd
       0.0061332923 0.010746084 -0.012610806 -0.10033221
000010 d2 c7 e3 3c b7 d0 94 bd f3 f6 0f be 81 e7 e8 3c
       0.027805243 -0.07266372 -0.14059047 0.028430702
000020 a3 a2 84 be d8 30 81 3e df 9e 3e be d7 78 e7 bc
       -0.25905332 0.25232577 -0.18615292 -0.028255863
000030 90 6e 05 bc 40 ce 36 bd 4e 41 06 3d 2d 03 04 be
       -0.008144036 -0.04463029 0.032777123 -0.12891836
000040 7f 0b c2 bd ea 85 21 3e 04 1f 18 3d 1d 7d 3b bd
       -0.09474849 0.1577374 0.037138954 -0.045773614
000050 68 0a 8d bd 26 8f 4d be 09 1c cc 3d 58 50 4b bd
       -0.068867505 -0.20074138 0.09966285 -0.04963717
000060 53 5c 80 bd e3 fe 91 bd e0 83 61 bc 06 62 c7 bb
       -0.062676094 -0.07128694 -0.013764352 -0.0060846834
000070 11 60 e1 bd cf 64 a0 bc 42 6b ca 3d b9 ec 7e 3d
       -0.11004651 -0.01957932 0.09883739 0.062237475
000080 f2 3f 32 be 31 5e a0 3d 2d df ff bc 8a ef 34 bd
       -0.17407206 0.078304656 -0.031234348 -0.044173755
000090 34 e7 52 be 20 f5 0e be 98 66 d8 bd 89 c5 91 bb
       -0.2059601 -0.13960695 -0.10566443 -0.004448597
0000a0 3f 64 92 3d 17 21 bd bd ea 8a 2b bd 16 82 e4 3d
       0.07148027 -0.09234827 -0.041880526 0.111576244
0000b0 2c c6 c9 3d 59 ac ff 3d a5 25 1c bc 59 a9 ff 3c
       0.098522514 0.124840446 -0.0095304595 0.031208681
0000c0 e7 cc 1e 3e b2 10 00 3e 41 6d 57 bd 7c a1 51 bd
       0.15507852 0.12506369 -0.052594427 -0.051179394
0000d0 17 27 ca ba b4 57 86 bc 2e 3e 8f bb 65 cf bf bd
       -0.0015423027 -0.016399242 -0.004371426 -0.09365729
0000e0 63 09 a2 be f7 c7 64 bd bc bd 21 be 3f 4f 31 3e
       -0.31647786 -0.055854764 -0.15795034 0.17315386
0000f0 f9 79 c2 3d 43 13 5c 3d 43 f2 ea bd 5a 83 c2 be
       0.09495921 0.053729307 -0.11471989 -0.37990838
000100 7a af 96 be e3 67 56 3c 75 c9 46 bc e7 cf 5d bd
       -0.29430753 0.013086292 -0.012132992 -0.05415335
000110 b3 33 1c be d9 6d 36 3d 8a 7f 71 be 47 39 e8 bd
       -0.15254097 0.044538353 -0.23583809 -0.1133905
000120 5d 96 72 3e 25 f0 b1 3d 69 c8 78 bd 90 9f 3a 3e
       0.23690172 0.08688382 -0.060738 0.18224931
000130 b6 0e 66 bd 45 06 f3 3d af 2a d1 3c 6b a1 67 3d
       -0.056166373 0.1186643 0.025533048 0.056550425
000140 22 ac 4b be 5f cf 72 bd 50 27 ba 3c 77 47 b7 bd
       -0.19889882 -0.059279796 0.022723824 -0.08949178
000150 5d c4 99 3e 12 09 5d 3e 5f ed 15 3e fd 13 5f 3d
       0.30032626 0.21585491 0.14641331 0.05446242
000160 e1 a4 55 3d be 97 47 be 3a 31 e3 3d 10 61 49 3d
       0.052159194 -0.19491479 0.110933736 0.04916483
000170 02 e3 10 3d 2b c1 49 3c 59 70 45 3e 3e 7f 13 3d
       0.03537274 0.012314121 0.19281138 0.03601002
000180 37 a9 20 3d b1 ee 5a 3e f7 e6 f7 bb 68 51 46 bc
       0.039223876 0.21380116 -0.007565375 -0.01210437
000190 78 60 7a 3e 32 ec 3b 3d e0 2e 89 3a 27 f6 4e be
       0.24450862 0.04587955 0.001046624 -0.20211087
0001a0 6f 71 00 3e 3c 6b 03 be 57 01 9d 3c 09 59 8f 3e
       0.12543271 -0.12833875 0.019165678 0.27997616
0001b0 63 b1 9a 3e f9 6c 9a 3d e1 10 6d 3e ed 8f 21 bc
       0.3021346 0.07540316 0.2315097 -0.009860975
0001c0 19 34 1f bc 3d 65 41 3e 53 c3 d8 bd 7d 33 36 be
       -0.009717011 0.18886276 -0.1058413 -0.17793079
0001d0 4b 16 12 be 95 dd 7c 3d 96 cd 4f bd 58 de 39 be
       -0.14266317 0.061734755 -0.05073317 -0.18151224
0001e0 ed 34 6f be 49 31 11 be e2 cb 93 be af 37 3d be
       -0.23360033 -0.14178957 -0.28866488 -0.18478273
0001f0 51 35 b9 3d af a7 38 3e 2f a0 60 3d 2a ad 7e be
       0.090433724 0.18032716 0.054840263 -0.24870744
000200 ad 0d a6 bc a3 15 9b bd d8 83 13 3d bc bf 15 3e
       -0.020270193 -0.07572486 0.036014408 0.14623922
000210 b8 44 b1 bd 5d c0 28 3d 63 35 2e bd e5 2b 3f 3d
       -0.08655685 0.041199077 -0.042531382 0.04667272
000220 ce 2c 59 3e d5 14 d7 3d e0 54 ba bb 81 ff ed bd
       0.21208498 0.1050202 -0.0056863874 -0.11620999
000230 e3 58 9b bd 78 2a a3 bc c8 f0 44 3d 49 f6 74 bd
       -0.07585313 -0.019917712 0.04808119 -0.05980519
000240 cc 93 42 3d a3 f2 1c 3e ff 0b 80 bb fb 7e 24 be
       0.04750423 0.15326934 -0.00390768 -0.16064064
000250 d7 7a 98 bd 01 d5 9e bc cd e9 84 bd 67 2e 1e bd
       -0.07445305 -0.019388678 -0.064899065 -0.03861847
000260 1f 1f a3 bd 0f 4f 2b 3d 5c 91 b2 bb cd 40 74 bd
       -0.0796492 0.041823443 -0.005449457 -0.05963211
000270 2d e3 53 bd eb 74 fb bd 6c e1 a3 bd d0 af 61 3e
       -0.051730324 -0.1227816 -0.0800198 0.22039723
000280 99 67 23 3e 67 4d d9 3d da 37 17 be 4c 34 0f be
       0.15957488 0.106104665 -0.147674 -0.13984793
000290 bf 1c 7f 3d 4e 0f 90 bb 96 bd a9 3b 67 b7 7a bc
       0.062283274 -0.0043963557 0.005180071 -0.015302516
0002a0 9c 7b 9b 3c 3c 8a 45 bd cb de bc bd 16 12 eb bd
       0.01897984 -0.048227534 -0.09222182 -0.11478059
0002b0 e5 3e 93 bd 9d 94 96 bd 46 b6 30 be 7c 58 bb bd
       -0.071897306 -0.073525645 -0.17257032 -0.091477364
0002c0 c6 2c 1d be 3f c0 28 bd c5 0d d4 3c aa 61 0a be
       -0.15349111 -0.041198965 0.025885472 -0.13513818
0002d0 5b f4 e6 bc ca 47 8c bd d2 f0 c9 bd 95 e5 c2 bd
       -0.02819269 -0.0684963 -0.09860386 -0.095164455
0002e0 43 f4 d9 bd 61 35 67 bd c2 04 a3 bb db ca b6 bc
       -0.10642292 -0.05644739 -0.0049749324 -0.022313526
0002f0 68 d5 ec bd 6a 3a 19 be 78 cb 1e 3d 58 cc 2c 3c
       -0.115641415 -0.1496369 0.03876826 0.010546766
000300 22 df 2f be 73 50 13 be 09 1b 9f bd 32 ef 98 bd
       -0.17174962 -0.14386158 -0.077688284 -0.07467498
000310 0a e6 3d be 0d 62 2d bd f7 4c 61 3d bd 40 6a 3d
       -0.18544784 -0.042329837 0.05500504 0.057190645
000320 e3 a6 b0 bd b0 b1 5d bd b1 7c dc 3d 36 6f 93 bd
       -0.08625581 -0.054124534 0.107659705 -0.07198946
000330 9a ed 36 be 06 42 68 bd 16 f5 c7 bd 81 47 26 be
       -0.17864075 -0.05670359 -0.09763543 -0.16238214
000340 a9 ac ac bd cc 76 b0 bd 28 44 2a bd 65 95 99 3c
       -0.0843137 -0.08616409 -0.041568905 0.018747995
000350 22 79 a8 3d 41 ff dc 3d a4 60 75 3d ee cb d5 3d
       0.08226229 0.10790873 0.059906617 0.10439287
000360 3a e7 59 3c c8 8b 09 3e 9b 7c 39 bc ee 8f 2a be
       0.013299758 0.13432229 -0.011321212 -0.16656467
000370 b2 78 e6 bd b5 92 b4 bd ab 41 3a be ca be 6d bd
       -0.112534896 -0.08817045 -0.18189113 -0.05804328
000380 c5 ce 6e be 59 8e 09 be 56 b8 08 be c4 c3 8c 3d
       -0.23321064 -0.13433208 -0.13351569 0.06873277
000390 a8 d2 53 3e 57 2d 7d 3d 23 e3 29 be f1 6c cd bd
       0.20685828 0.061810818 -0.16590552 -0.100305445
0003a0 f6 31 dc be 8b 3d 62 3c eb 0f ea bd 0a 26 c8 bd
       -0.43006867 0.013808618 -0.11428817 -0.097728804
0003b0 ce 15 8b be 13 56 13 bd ec 2b 15 bc 7b 6d 8e be
       -0.27165073 -0.03597076 -0.00910471 -0.27817902
0003c0 70 f0 f4 3d d2 80 00 3e 6b 33 4f 3d 2d 9b 96 bd
       0.11959922 0.12549141 0.050586145 -0.07353816
0003d0 3a c9 0e 3e 8d ea 57 3c 2a 08 20 be d4 8b 84 bd
       0.1394395 0.01317848 -0.15628114 -0.064719826
0003e0 c9 2e 60 be 0e 36 91 bd 62 55 f3 3d ad 1a 65 be
       -0.21892847 -0.07090388 0.1188152 -0.22373457
0003f0 e4 8b 65 3e b2 b6 3a 3e 17 5b 58 3e 8a 90 1d 3c
       0.22416645 0.18233755 0.21128498 0.00961698

FC1.bias f4 [120]
000000 1b 81 b0 3e fa da 53 3d 61 44 33 be b3 54 82 3e
       0.344735 0.051722504 -0.17506553 0.25455245
000010 4f 9f 81 bd de 44 73 3d aa d8 50 3e d3 7a 8d be
       -0.06329214 0.05939185 0.20395151 -0.2763277
000020 dd 80 3f be 2b b4 46 be 14 17 07 be 6f 5b 4f bd
       -0.18701501 -0.19404666 -0.13192397 -0.050624307
000030 a2 f1 8d 3e ff 04 fc bd b4 ad b1 38 3c 71 e0 bc
       0.27723414 -0.123056404 8.4723724e-05 -0.027397744
000040 3f 48 97 3e c6 3f db 3c c2 c4 3c bb f0 f1 85 be
       0.29547307 0.026763808 -0.00288038 -0.26161146
000050 88 fa 11 be 23 4c 78 be 6d 26 c4 3d d6 61 3d be
       -0.14255726 -0.24247794 0.09577642 -0.18494353
000060 9f 1e fe 3d 06 09 82 be 3e 0a 67 3e 18 6c b7 bd
       0.12408184 -0.2539751 0.22562501 -0.08956164
000070 d5 cd d6 3d 76 cd 52 bb 25 e6 33 be 52 7d 8f bc
       0.10488478 -0.0032165921 -0.17568262 -0.017515812
000080 19 73 c3 bd 23 e5 e3 3b e9 af c4 3d 7e cb c4 bc
       -0.095434375 0.0069548055 0.09603865 -0.024022814
000090 52 24 a9 bd 15 bf 66 3e 26 17 a6 3d 2d 04 f4 bd
       -0.08258881 0.2253383 0.08109884 -0.11914859
0000a0 bb ed c5 3d c9 e3 fe bd bd fa 98 bd f0 aa 9d 3e
       0.09664484 -0.1244579 -0.074696995 0.30794477
0000b0 f3 78 19 3e 47 b6 aa bd 7e ba 0d be b0 ed 00 3d
       0.14987545 -0.08335548 -0.13840672 0.031476676
0000c0 bd 63 a0 bc 59 fd e7 bd 9f 77 f9 bd 9f eb b8 bd
       -0.019578809 -0.11327619 -0.12181019 -0.09029316
0000d0 56 5f 17 bd f0 21 e5 bd f0 ee a1 bd 78 d5 1a 3d
       -0.036956154 -0.11188114 -0.07906902 0.037801236
0000e0 b5 2f 88 3e 57 a0 3f bc ac 39 5a be 95 c9 b5 bd
       0.26598898 -0.011695943 -0.21311063 -0.08876339
0000f0 62 12 d1 3c 01 93 c0 bd 80 aa e8 3d e8 21 65 3e
       0.02552146 -0.09403039 0.11360645 0.22376215
000100 31 d2 b3 3d 6c 24 31 bd a7 86 3e be 1c ed 2b be
       0.08780325 -0.043247625 -0.18606053 -0.16789669
000110 70 23 49 bc 0a d1 dd ba 6e 9e 1b be 89 77 d9 bd
       -0.012276515 -0.001692326 -0.15197155 -0.10618503
000120 67 14 2a be 03 75 55 bd 07 29 5c be 22 68 ef 3d
       -0.16609345 -0.052113544 -0.21500026 0.11689784
000130 a1 07 00 bd f6 e3 1b bd 99 82 31 bc 29 ea cf bc
       -0.031257275 -0.038059197 -0.01083436 -0.025380211
000140 64 8d 08 3d 0b e1 98 be 03 0d f7 bc bb 99 24 be
       0.033337966 -0.29859194 -0.030157572 -0.16074269
000150 04 12 56 be 34 7e 17 3c c2 91 48 bd d3 36 3b be
       -0.2090531 0.009246398 -0.04896713 -0.18282633
000160 aa 15 6f bd 51 e2 00 bd 0e bd 31 3d 2c ae b4 3d
       -0.05837027 -0.031465832 0.043393187 0.08822283
000170 c5 00 4c be e2 5f 41 be e1 20 87 be 80 23 e5 bd
       -0.19922169 -0.18884233 -0.26392272 -0.11188412
000180 24 ca 78 3d 33 59 a9 bd b1 5d d6 3c 57 90 1c be
       0.06073965 -0.082689665 0.026167722 -0.15289436
000190 28 5c 15 be 9b e4 c6 3d 2f e9 9f be c7 d6 fb bd
       -0.14585936 0.09711572 -0.31232592 -0.12296825
0001a0 56 00 60 3d 76 b1 04 be 62 c3 40 be 66 53 5d bd
       0.05468782 -0.12958321 -0.18824533 -0.054034613
0001b0 ba 03 50 3e d1 24 8f be 91 9a e6 bd 38 22 40 bc
       0.20313922 -0.27957776 -0.1125995 -0.011726908
0001c0 cc 16 0f 3c 1f b7 81 bd 0b 95 36 be 79 12 d2 ba
       0.008733463 -0.06333756 -0.17830293 -0.0016027234
0001d0 e1 a8 a9 bc e2 8e 1c be 8a d3 83 bd fc 77 0f be
       -0.02071041 -0.1528888 -0.06436832 -0.14010614

FC2.weight f4 [10, 120]
000000 e6 8f 38 3e 83 aa 78 3e 8e 80 72 bd 75 d7 d3 bd
       0.18023643 0.24283795 -0.05920463 -0.103438295
000010 fa 0e d5 3d db ea 22 be 7e 33 d2 be 04 97 56 be
       0.10403247 -0.15909903 -0.4105491 -0.20956045
000020 a3 fe 0a 3e 4e 0a 4f 3d e4 00 4b be c1 38 d9 3d
       0.13573699 0.050546937 -0.19824558 0.10606528
000030 93 78 91 bd a2 e5 f3 bc 92 ec 7c 3d 1d 17 f1 bb
       -0.07103076 -0.029772583 0.06174905 -0.0073574916
000040 a6 d6 17 3e ed c9 68 be 04 b3 d1 be c0 52 55 bc
       0.14827976 -0.22733279 -0.4095689 -0.013020217
000050 b5 97 36 3e 8d 39 b8 3d d4 df 16 3e 16 52 98 3b
       0.17831309 0.08995352 0.14733821 0.0046484573
000060 c0 38 55 3d e4 1a 8b bd 5f 4f 2e 3e d4 76 b7 be
       0.052056074 -0.06792238 0.17022465 -0.35832846
000070 82 7f 8b bc b4 3c 1a 3d 2c ba 6d 3e 7c 7a 6b 3e
       -0.017028574 0.037655547 0.2321555 0.22995943
000080 9b 8e ae 3d ca 3f 7f be fa 39 44 3e 69 97 f4 bd
       0.085232936 -0.24926677 0.19162741 -0.11942942
000090 84 d5 8a bd 36 df 52 3e 49 6a 2e 3d b6 3c 64 3d
       -0.06779006 0.2059296 0.04258183 0.05572196
0000a0 08 51 2f be a4 9e 14 bf 0f 52 83 be cd d6 62 3e
       -0.17120755 -0.58054566 -0.25648543 0.22152252
0000b0 cd e6 4c bd 25 48 09 bc 57 d1 21 3e 8d 38 6f 3e
       -0.050024796 -0.008379017 0.15802513 0.23361416
0000c0 ce 21 92 bd 30 6b 9b bd 0c c1 58 bd dd 76 dc bd
       -0.07135354 -0.07588804 -0.05291848 -0.10764859
0000d0 58 65 1a be 36 7e a4 3d 05 ec 69 3e ce 7a e1 bc
       -0.15077722 0.08031885 0.2284394 -0.027524378
0000e0 39 90 08 be c1 31 87 be 3b 2e 44 3d 28 2a c6 bd
       -0.13336267 -0.26405147 0.04789565 -0.096760094
0000f0 71 49 06 3d ad 88 06 3e fb f6 d2 bd 23 ef 94 3d
       0.032784883 0.13138075 -0.10301014 0.07272174
000100 0e 33 59 3e 8c 22 02 bd b5 b8 68 be 1f d1 b0 3d
       0.21210882 -0.031771228 -0.2272671 0.08633637
000110 f1 8d 80 be 38 90 ec be 47 64 77 be c6 2d ea 3d
       -0.25108293 -0.4620378 -0.24159347 0.11434512
000120 8a 21 f6 bb a6 92 02 be 16 ad 87 be b4 69 f5 bd
       -0.0075113224 -0.12751254 -0.26499242 -0.11983052
000130 b8 aa 6c be 72 1f 5a bd 29 9c dd be ff 3e 58 bd
       -0.23111999 -0.053252645 -0.43283203 -0.052794453
000140 01 58 03 bf 03 23 12 3e 58 8f 34 bd ba 00 49 bd
       -0.5130616 0.14271168 -0.044082016 -0.04907296
000150 a0 e4 15 be 76 67 9f be 81 ee 7e 3e 88 c9 5e 3e
       -0.14637995 -0.31133622 0.2489567 0.21756566
000160 27 97 a4 bd 12 ba fe bc 6f 2b 55 bd de 94 fb bd
       -0.080366425 -0.031094585 -0.052043375 -0.122842535
000170 46 7a 2a bd 57 6b 78 be 26 33 c7 3d 3d f1 12 3d
       -0.041620515 -0.24259697 0.09726553 0.035874594
000180 a6 97 c0 be 82 02 ad 3d a7 93 c7 be 52 a1 1f be
       -0.376157 0.08447744 -0.38979837 -0.15588883
000190 cf b2 1f bd ba be 8f be fd 6c b6 3d 76 07 48 be
       -0.038988885 -0.280752 0.089075066 -0.19534096
0001a0 fe 77 8f bd c4 c9 07 3e 78 ee 78 3d 5e df 48 be
       -0.070053086 0.13260561 0.060774297 -0.19616458
0001b0 6f e4 b2 be 76 9d 27 bb 8a aa 2f be 70 05 51 39
       -0.34939906 -0.0025576032 -0.17154899 0.00019933819
0001c0 ee 8b d2 bd 87 81 19 be 9b 2d 0f 3e 4e d0 ae 3d
       -0.10280596 -0.14990817 0.13982241 0.08535825
0001d0 34 4b b7 be 0f 20 14 3d 36 8f 3b 3e 2d f8 34 3e
       -0.35799563 0.036163386 0.1831635 0.17672797
0001e0 9e 82 38 3e 20 18 b9 bd ed f6 b3 3d 65 22 3c 3e
       0.18018577 -0.090378046 0.08787332 0.18372495
0001f0 d8 89 b3 be 23 9c 0d 3d 0d c8 66 ba 2c f3 50 3e
       -0.35066104 0.03457273 -0.00088036136 0.20405263
000200 be a6 34 bf c2 d4 26 3e b9 01 2e 3e 72 69 5f 3d
       -0.7056693 0.16292098 0.16992845 0.05454392
000210 df b1 0e 3e ba e3 1e bf 18 ad d9 be 82 f2 09 3e
       0.1393504 -0.62066233 -0.42514873 0.13471416
000220 ce 35 dd 3e 8f ac 6c bd 36 83 e0 3d 26 f5 2c 3e
       0.43205112 -0.057781752 0.109625265 0.16890392
000230 2d d3 1d 3e 0e 6c 84 bd 96 c0 37 3e ff da 0d bf
       0.15412588 -0.06465922 0.1794456 -0.55412287
000240 f1 a5 83 3d fd b4 95 bd 91 3e 8f 3c ca bb 33 bd
       0.06428135 -0.073099114 0.017485889 -0.04388026
000250 70 5b ff bc 4c 1b 89 be fb 73 ea bd ec 91 f3 3d
       -0.03117153 -0.26778638 -0.11447903 0.11893067
000260 63 c0 07 bf 79 de ac 3d e0 52 0c be 71 40 02 3e
       -0.53027934 0.08440871 -0.1370349 0.12719895
000270 be 7a cd 3d cb 57 2a 3e 0e c5 90 bd b4 2b 49 be
       0.10033177 0.16635053 -0.07068835 -0.19645578
000280 90 a8 9b 3e 72 e9 ff bd e7 74 66 bc 2b a2 40 3e
       0.3040204 -0.12495698 -0.014065958 0.18811862
000290 df f4 4b 3e 20 5d 97 be e3 52 12 bf 92 11 47 bd
       0.1991763 -0.29563236 -0.57157725 -0.04860074
0002a0 42 99 28 3d e7 52 d2 3b 8b da 28 3e aa f3 c2 3d
       0.041161783 0.006418574 0.16489618 0.095191315
0002b0 17 9e 74 3d 49 ae ec 3d b8 82 e5 bd 91 89 09 bf
       0.05972108 0.1155668 -0.11206573 -0.53725535
0002c0 5d f6 20 3e e4 3a 6a be e0 6e ee bd af b9 70 3d
       0.1571898 -0.22874027 -0.116422415 0.05877083
0002d0 ba e6 cc be 3c d3 db bd 11 5b ad bc c4 09 3d bc
       -0.4001978 -0.10733649 -0.021161588 -0.011537973
0002e0 52 1d 49 3d 1f ec 2d bd d4 63 8f be c9 7b a9 be
       0.049100228 -0.04246151 -0.2800585 -0.33102253
0002f0 4b 76 0b 3c db 5e a7 be 0a bb 58 bf 87 6e 27 bc
       0.00851209 -0.32689556 -0.846604 -0.010219223
000300 49 77 3a bf a5 e1 23 3c ed 92 26 3e ff ea dc 3e
       -0.72838265 0.010002528 0.16266985 0.43148038
000310 75 fa 0d 3e 2a 64 dc 3d db 45 9c be 99 2f 62 be
       0.13865073 0.10761292 -0.30522045 -0.2208847
000320 a4 2f 11 3d 64 2b 02 be 4f 74 fc 3d 16 17 34 be
       0.035445824 -0.12711865 0.123268716 -0.17586932
000330 44 fe c5 be 7b 11 28 bd 66 7f 06 be 49 85 b6 be
       -0.38670552 -0.041032296 -0.13134536 -0.35648564
000340 ca 58 50 be 27 47 87 3e ec f1 96 3d aa 52 62 3e
       -0.2034637 0.26421472 0.07370362 0.22101846
000350 d0 c9 99 be 1c 22 08 be cf da a3 be ac dd 48 be
       -0.30036783 -0.13294262 -0.32002875 -0.19615811
000360 62 68 89 3c 2a 2d b7 be 5a 39 18 bd a6 5b 89 bd
       0.016773406 -0.35776645 -0.03716407 -0.06706934
000370 37 22 1a bf 63 fd 54 3e 67 a0 c2 be 2b fb 45 3e
       -0.6020846 0.20799784 -0.38013002 0.19334094
000380 cc 38 c1 3e a2 22 ac 3d 62 08 89 bd 5b c3 e3 3d
       0.37738645 0.08405043 -0.06691052 0.111212455
000390 39 8b 43 3e 88 29 e8 3c 1c 40 8c be ce f3 2a 3d
       0.19096078 0.028340116 -0.27392662 0.041736417
0003a0 31 31 09 3e 40 48 c1 3e 31 be ed bd c9 90 3d be
       0.13397671 0.37750435 -0.11608542 -0.18512262
0003b0 d0 a2 b6 3d 09 75 c9 3d b8 c7 93 be 25 23 f3 bd
       0.08917773 0.09836776 -0.2886331 -0.11871938
0003c0 00 cc 84 bd 67 ea e9 3d 22 1a 5a 3e 8e b0 8e bc
       -0.064842224 0.11421662 0.21299031 -0.017418172
0003d0 8b de 82 be 67 9d 1b 3e 4d 56 79 3e cc 82 cd 3c
       -0.25560412 0.15196763 0.24349327 0.025086783
0003e0 75 b3 a5 bd 02 99 c0 be 15 de 28 be 02 be 19 3e
       -0.08090869 -0.37616736 -0.16490968 0.15013888
0003f0 c5 2f 89 bd e0 b7 27 bd ce fc 59 3d 17 77 61 3e
       -0.066985644 -0.04094684 0.05321961 0.22018085

FC2.bias f4 [10]
000000 9b 08 00 be 35 fe 23 be 61 d4 85 3c 4d b3 64 be
       -0.12503283 -0.16014941 0.016336622 -0.22334023
000010 b7 63 b8 3d 37 cb cb 3d e3 11 04 3d de 41 35 bd
       0.09003394 0.099508695 0.03224362 -0.04425227
000020 cf 1e 97 3e 6a 53 b6 3d
       0.29515693 0.08902629
